True
cuda
total: 25756696576, reserved: 0, free: 0
FeedforwardNeuralNetwork(
  (layers): ModuleList(
    (0): Linear(in_features=2, out_features=50, bias=True)
    (1-3): 3 x Linear(in_features=50, out_features=50, bias=True)
  )
  (output): Linear(in_features=50, out_features=1, bias=True)
  (relu): ReLU()
)
DGMCell(
  (sig_act): Tanh()
  (Sw): Linear(in_features=2, out_features=50, bias=True)
  (Uz): Linear(in_features=2, out_features=50, bias=True)
  (Wsz): Linear(in_features=50, out_features=50, bias=True)
  (Ug): Linear(in_features=2, out_features=50, bias=True)
  (Wsg): Linear(in_features=50, out_features=50, bias=True)
  (Ur): Linear(in_features=2, out_features=50, bias=True)
  (Wsr): Linear(in_features=50, out_features=50, bias=True)
  (Uh): Linear(in_features=2, out_features=50, bias=True)
  (Wsh): Linear(in_features=50, out_features=50, bias=True)
  (Wf): Linear(in_features=50, out_features=1, bias=True)
)
Discriminator(
  (map): Sequential(
    (0): Linear(in_features=2, out_features=50, bias=True)
    (1): ReLU()
    (2): Linear(in_features=50, out_features=50, bias=True)
    (3): ReLU()
    (4): Linear(in_features=50, out_features=50, bias=True)
    (5): ReLU()
    (6): Linear(in_features=50, out_features=50, bias=True)
    (7): ReLU()
    (8): Linear(in_features=50, out_features=2, bias=True)
  )
)
0/60001 PDE Loss: 0.01060, BC Loss: 3521.14185
500/60001 PDE Loss: 2.23951, BC Loss: 2762.15576
1000/60001 PDE Loss: 0.04110, BC Loss: 2472.57495
1500/60001 PDE Loss: 0.00135, BC Loss: 2570.22803
2000/60001 PDE Loss: 0.00058, BC Loss: 2578.59033
2500/60001 PDE Loss: 0.00366, BC Loss: 2515.98755
3000/60001 PDE Loss: 0.00387, BC Loss: 2470.86548
3500/60001 PDE Loss: 0.18952, BC Loss: 2315.41821
…
