total: 25756696576, reserved: 0, free: 0
DGMCell(
  (sig_act): Tanh()
  (Sw): Linear(in_features=2, out_features=50, bias=True)
  (Uz): Linear(in_features=2, out_features=50, bias=True)
  (Wsz): Linear(in_features=50, out_features=50, bias=True)
  (Ug): Linear(in_features=2, out_features=50, bias=True)
  (Wsg): Linear(in_features=50, out_features=50, bias=True)
  (Ur): Linear(in_features=2, out_features=50, bias=True)
  (Wsr): Linear(in_features=50, out_features=50, bias=True)
  (Uh): Linear(in_features=2, out_features=50, bias=True)
  (Wsh): Linear(in_features=50, out_features=50, bias=True)
  (Wf): Linear(in_features=50, out_features=1, bias=True)
)
Discriminator(
  (map): Sequential(
    (0): Linear(in_features=2, out_features=50, bias=True)
    (1): ReLU()
    (2): Linear(in_features=50, out_features=50, bias=True)
    (3): ReLU()
    (4): Linear(in_features=50, out_features=50, bias=True)
    (5): ReLU()
    (6): Linear(in_features=50, out_features=50, bias=True)
    (7): ReLU()
    (8): Linear(in_features=50, out_features=2, bias=True)
  )
)
0/60001 PDE Loss: 0.00002, BC Loss: 3554.15723
500/60001 PDE Loss: 0.02350, BC Loss: 177.92744
1000/60001 PDE Loss: 0.00721, BC Loss: 70.76904
1500/60001 PDE Loss: 0.00240, BC Loss: 16.56581
2000/60001 PDE Loss: 0.00386, BC Loss: 3.85839
2500/60001 PDE Loss: 0.00277, BC Loss: 2.56632
3000/60001 PDE Loss: 0.00113, BC Loss: 2.51576
3500/60001 PDE Loss: 0.00109, BC Loss: 2.14276
…
