
DGMCell(
  (sig_act): Tanh()
  (Sw): Linear(in_features=2, out_features=100, bias=True)
  (Uz): Linear(in_features=2, out_features=100, bias=True)
  (Wsz): Linear(in_features=100, out_features=100, bias=True)
  (Ug): Linear(in_features=2, out_features=100, bias=True)
  (Wsg): Linear(in_features=100, out_features=100, bias=True)
  (Ur): Linear(in_features=2, out_features=100, bias=True)
  (Wsr): Linear(in_features=100, out_features=100, bias=True)
  (Uh): Linear(in_features=2, out_features=100, bias=True)
  (Wsh): Linear(in_features=100, out_features=100, bias=True)
  (Wf): Linear(in_features=100, out_features=1, bias=True)
)
FeedforwardNeuralNetwork(
  (layers): ModuleList(
    (0): Linear(in_features=2, out_features=50, bias=True)
    (1-2): 2 x Linear(in_features=50, out_features=50, bias=True)
  )
  (output): Linear(in_features=50, out_features=1, bias=True)
  (relu): ReLU()
)
ImprovedFNN(
  (input): Linear(in_features=2, out_features=50, bias=True)
  (hidden): ModuleList(
    (0-1): 2 x AdaptiveRelu()
  )
  (output): Linear(in_features=50, out_features=1, bias=True)
)
0/60000 PDE Loss: 0.00022, BC Loss: 4121.26514, reg_loss:  0.367879 total loss: 4121.265137
500/60000 PDE Loss: 0.00071, BC Loss: 2736.10767, reg_loss:  0.365097 total loss: 2736.108398
1000/60000 PDE Loss: 0.00119, BC Loss: 1690.91199, reg_loss:  0.361252 total loss: 1690.913208
1500/60000 PDE Loss: 0.00131, BC Loss: 934.03693, reg_loss:  0.357072 total loss: 934.038208
…
